lab2/best_model.ckpt (torch, 188104 bytes, 18 tensors)

model.0.weight f4 [119, 2]
0	0x3dbba30b	0.09161957
1	0x3e097c7d	0.13426395
2	0xbe2cc388	-0.16871464
3	0xbe9f3e5f	-0.31102273
4	0xbe9ab350	-0.3021493
5	0x3e9abd65	0.30222622
6	0x3f02d806	0.51110876
7	0xbf041e1e	-0.51608455
8	0xbf2cd38b	-0.6751029
9	0xbea2d7a9	-0.3180516
10	0x3e832fdd	0.25622454
11	0x3e8f7e13	0.28025874
12	0xbebd6fab	-0.36999258
13	0x3ee5ce4f	0.44883963
14	0x3e8b931f	0.27260682
15	0x3f2e12b4	0.6799729
16	0x3db146f3	0.086561106
17	0x3e077fa8	0.1323229
18	0x3f065972	0.5248023
19	0xbf07c7f3	-0.53039473
20	0xbe40dfa6	-0.18835315
21	0xbe871598	-0.26383662
22	0xbe67f143	-0.22650628
23	0x3e6ffaf6	0.23435578
24	0xbde29700	-0.11063957
25	0xbf08998b	-0.5335929
26	0xbe61d70d	-0.22054692
27	0x3e63b18f	0.22235702
28	0xbf220fac	-0.63305163
29	0x3e28a17d	0.16467853
30	0xbdf3b627	-0.11899977
31	0xbea6538e	-0.32485622
32	0x3df0b756	0.117537186
33	0xbf19c4ac	-0.6006572
34	0x3e322db9	0.17400254
35	0xbdd6a22b	-0.1048015
36	0xbf1d1a83	-0.6136858
37	0x3ec28344	0.37990773
38	0x3f235657	0.6380362
39	0xbcc6685f	-0.02421969
40	0x3d80540d	0.062660314
41	0xbf03def8	-0.515121
42	0xbf1ae568	-0.60506296
43	0x3e855f7f	0.2604942
44	0x3ebe95e3	0.3722373
45	0xbf0dbfbd	-0.55370694
46	0xbe112694	-0.14174873
47	0x3d7bac24	0.061443463
48	0x3ef9208d	0.48657647
49	0x3e039c7d	0.12852664
50	0xbdec9343	-0.115515254
51	0x3e1abede	0.15111873
52	0x3f2a39e4	0.66494584
53	0x3f2fa335	0.6860841
54	0xbf0f220c	-0.55911326
55	0x3f0ff360	0.56230736
56	0x3e8e1ab1	0.2775474
57	0x3f11678e	0.56798637
58	0x3edb32cc	0.42812192
59	0x3f1ab445	0.6043132
60	0x3eb3bba1	0.35104087
61	0x3e46fbd9	0.1943201
62	0xbf188964	-0.5958464
63	0x3af9ce3b	0.0019058654
64	0xbea7f4cc	-0.32803953
65	0xbd90d038	-0.070709646
66	0xbe97da1e	-0.29658598
67	0xbf0b0bbf	-0.543148
68	0x3dca1b6b	0.09868511
69	0xbf2167e6	-0.6304916
70	0xbef711ad	-0.48255673
71	0xbf0e7d3b	-0.55659837
72	0xbd4aa52e	-0.049473934
73	0xbe14b5c8	-0.14522469
74	0x3ea95158	0.33069873
75	0xbeab4a59	-0.3345516
76	0x3ed97252	0.42470032
77	0xbe415196	-0.18878779
78	0x3ea960a8	0.33081555
79	0x3c99dc58	0.018781826
80	0xbe38768e	-0.18013975
81	0x3ead2ae8	0.33821797
82	0x3eafc428	0.34329343
83	0x3edd28d0	0.431952
84	0x3f2c76b0	0.673686
85	0xbe6fc279	-0.23414029
86	0x3ec677ee	0.38763374
87	0x3f376f8b	0.71654576
88	0x3e614a16	0.22000918
89	0x3f1cf682	0.6131364
90	0xbe4bb8a6	-0.19894657
91	0xbcd39744	-0.025828965
92	0x3f0b9239	0.54519993
93	0xbca11a45	-0.019665847
94	0xbebc6889	-0.36798504
95	0xbe74041b	-0.23829691
96	0xbed8f57b	-0.42374787
97	0x3ef330b7	0.47498104
98	0xbf0f0666	-0.5586914
99	0x3f100c2d	0.5626858
100	0xbd1cbda5	-0.038266797
101	0x3eb5ae92	0.3548475
102	0x3f0cb756	0.5496725
103	0xbe526812	-0.20547512
104	0xbe31ce65	-0.1736389
105	0x3b48d826	0.0030646413
106	0x3e66df74	0.22546178
107	0xbd9632ef	-0.073339336
108	0x3d7b65c5	0.061376352
109	0x3e94e69a	0.29082185
110	0xbe1cb1f3	-0.15302257
111	0x3e1e57d7	0.15463196
112	0xbe80c662	-0.25151354
113	0xbf326c50	-0.6969652
114	0x3f24c4e4	0.6436293
115	0x3e62f1a4	0.22162491
116	0x3ef40637	0.47660992
117	0x3eed79e0	0.46382046
118	0x3e27bc81	0.16380502
119	0x3d9fe519	0.07807369
120	0x3df50c9f	0.11965298
121	0x3ecd7138	0.40125442
122	0xbef70791	-0.4824796
123	0x3d4306ba	0.047613837
124	0x3ef1b4ef	0.47208354
125	0x3e24efff	0.16107176
126	0xbeda7dfe	-0.4267425
127	0x3edc9a42	0.4308644
128	0xbe7f1b6c	-0.24912804
129	0xbe66c146	-0.22534665
130	0xbd096ef7	-0.03355309
131	0x3e8db7f9	0.27679422
132	0x3eb75f90	0.35815096
133	0x3eb34bb9	0.3501871
134	0xbc1cc324	-0.0095680095
135	0x3ee1c8b5	0.4409844
136	0xbe942c05	-0.28939834
137	0x3e9639f7	0.293411
138	0xbd1fd1af	-0.03901833
139	0xbe091cfa	-0.1338996
140	0x3e4e2ab3	0.20133476
141	0x3d06b987	0.032891776
142	0x3cbf8547	0.023378981
143	0xbe6026c7	-0.21889792
144	0x3f37a3b2	0.71734154
145	0x3e31e462	0.17372277
146	0x3f137d3d	0.57612973
147	0xbdadf7f9	-0.08494563
148	0xbe844548	-0.25834107
149	0xbe1d7fe3	-0.15380816
150	0x3e74dc01	0.2391205
151	0xbf2576f6	-0.64634645
152	0xbe89a040	-0.26880074
153	0x3c8f2508	0.017473713
154	0xbef3d5da	-0.47624093
155	0xbf2a053d	-0.66414243
156	0x3ec00b7a	0.37508756
157	0xbe388c97	-0.18022381
158	0xbef1341d	-0.47110072
159	0xbe48ff5d	-0.19628663
160	0x3eaa5988	0.33271432
161	0xbf279c8d	-0.6547325
162	0xbe5886db	-0.21145193
163	0x3f13a554	0.57674146
164	0xbe438797	-0.19094692
165	0x3f35f2fd	0.71073896
166	0x3ed4e5e4	0.41581643
167	0x3f1f70dd	0.6228159
168	0x3ed7e466	0.42166442
169	0x3e6b1f56	0.22961172
170	0xbe89e531	-0.26932672
171	0x3e933bc0	0.28756523
172	0x3f2a1f7c	0.6645429
173	0x3e557e2b	0.2084891
174	0x3f163d84	0.58687615
175	0xbf174e4f	-0.59103864
176	0xbefafc59	-0.4902065
177	0xbef77bd2	-0.48336655
178	0x3f25f95f	0.64833635
179	0xbf082eee	-0.5319661
180	0x3f123e58	0.5712638
181	0xbe2eeb02	-0.17081836
182	0xbf10b782	-0.5653001
183	0x3f11fa17	0.5702223
184	0xbf0130c1	-0.5046502
185	0x3f02700c	0.5095222
186	0xbe7d1b02	-0.24717334
187	0x3d97d9c7	0.074145846
188	0x3cc30e1a	0.023810435
189	0x3ecc5152	0.39905792
190	0xbf073fda	-0.52831805
191	0x3ef9b061	0.4876738
192	0x3f2ba350	0.6704607
193	0x3d924895	0.0714275
194	0xbf292f15	-0.66087466
195	0xba8ac02c	-0.0010585836
196	0x3f20c5e4	0.6280196
197	0xbdee209f	-0.11627316
198	0xbe4393b8	-0.19099319
199	0xbf2b19a8	-0.66836023
200	0x3f03ab17	0.5143294
201	0xbeb83cdd	-0.35983935
202	0xbef8c4dd	-0.48587695
203	0xbed6239f	-0.41824052
204	0xbda85428	-0.082191765
205	0x3f0c2b9b	0.54754037
206	0x3bc9a965	0.0061542266
207	0x3ea146c3	0.314993
208	0xbe9c424f	-0.3051934
209	0xbe896778	-0.26836753
210	0x3e6782fc	0.2260856
211	0xbef2d9d9	-0.4743183
212	0xbe9d45c4	-0.3071729
213	0xbe9cf93c	-0.306589
214	0xbe8d2f64	-0.2757522
215	0x3f23c7c5	0.639767
216	0xbb6b3d95	-0.003589486
217	0xbf14df4a	-0.5815321
218	0x3f268684	0.65049005
219	0xbe3ed8a9	-0.18637337
220	0xbe6872da	-0.22700062
221	0x3e619dea	0.22032896
222	0xbe128cdb	-0.14311545
223	0x3e9284ba	0.28616887
224	0xbd25c0ed	-0.04046719
225	0x3d2c1654	0.04201348
226	0x3e79a689	0.24379934
227	0xba22ec35	-0.0006215007
228	0xbef2ff6c	-0.47460496
229	0xbf08942b	-0.53351086
230	0xbe8f4d96	-0.2798888
231	0xbe286fd2	-0.16448906
232	0x3f19b15d	0.6003626
233	0x3ec3619d	0.3816041
234	0x3f1c6957	0.61098236
235	0x3d94e1b4	0.07269612
236	0x3edbb599	0.42911986
237	0xbede12ba	-0.43373662

model.0.bias f4 [119]
0	0xbeb9f35b	-0.36318478
1	0xbdd98ce9	-0.106225796
2	0xbebecc7e	-0.3726539
3	0x3dc81eff	0.09771537
4	0x3f2c486e	0.6729802
5	0x3f2e6247	0.6811871
6	0x3d3f81bb	0.04675458
7	0x3eeccf53	0.46251926
8	0x3f37beaa	0.71775305
9	0xbe6628df	-0.22476529
10	0x3f21409d	0.6298922
11	0xbe8544ef	-0.26029155
12	0xbd3f5837	-0.046714988
13	0x3f29a47b	0.662666
14	0xbeaf4581	-0.34232715
15	0xbe222091	-0.15832736
16	0xbea8fb59	-0.33004263
17	0x3f087de8	0.5331712
18	0xbdebc0f3	-0.115114115
19	0xbee8e576	-0.45487565
20	0xbef21f82	-0.47289664
21	0x3eaee5bd	0.3415965
22	0xbc53ea5e	-0.012934295
23	0xbe8aa573	-0.27079353
24	0x3e55478a	0.20828071
25	0x3d4887f8	0.048957795
26	0xbeec67af	-0.46172854
27	0x3f01927b	0.50614136
28	0xbcb9818b	-0.022644779
29	0x3e3f97c1	0.18710233
30	0x3e1f9810	0.15585351
31	0xbf113682	-0.567238
32	0x3e066c7b	0.1312732
33	0x3efa1536	0.48844308
34	0x3e9ac5ed	0.3022913
35	0x3ee974d3	0.45596942
36	0xbe835d80	-0.25657272
37	0x3e8f7192	0.28016335
38	0x3e37bb71	0.17942597
39	0xbf1b2582	-0.6060411
40	0xbdbba05a	-0.09161444
41	0x3f37c155	0.71779376
42	0xbf18a5ae	-0.5962781
43	0x3e44609c	0.19177479
44	0xbe89bf0f	-0.2690358
45	0xbe7d242e	-0.24720833
46	0x3f04260e	0.51620567
47	0x3f2a7b6c	0.66594577
48	0x3f2224be	0.63337314
49	0xbec8f2c5	-0.39247718
50	0x3ec5b6e5	0.386161
51	0xbeb52f76	-0.35387772
52	0x3f214f33	0.63011473
53	0x3f1f320e	0.6218575
54	0x3ec071ee	0.3758692
55	0xbb18dad5	-0.0023323793
56	0x3e5ed787	0.21761905
57	0xbf2548e4	-0.6456435
58	0x3d89dd98	0.06731719
59	0xbe8420a4	-0.25806153
60	0xbe4fdda7	-0.20299397
61	0xbf3251f7	-0.6965632
62	0xbf1880af	-0.59571356
63	0x3e9e3f66	0.30907744
64	0xbdecca65	-0.11562041
65	0xbf1a1e5c	-0.60202575
66	0x3e564e3c	0.20928282
67	0xbe06f683	-0.13179974
68	0x3e37f7f3	0.17965679
69	0xbeb8e094	-0.3610884
70	0x3f27c04d	0.655278
71	0x3e3ee1a7	0.18640767
72	0x3f165dfd	0.58737165
73	0x3e889c5e	0.266818
74	0xbe584207	-0.21118937
75	0xbe504c19	-0.20341529
76	0xbeb2b5e4	-0.34904397
77	0xbf302de0	-0.6882
78	0x3af8f7e8	0.001899478
79	0x3f00c978	0.50307417
80	0x3e38e40d	0.18055744
81	0x3e8cafb2	0.27477795
82	0x3e85a0fc	0.26099384
83	0x3cc1c4be	0.023653384
84	0xbd1b47dc	-0.037910327
85	0x3f2a3714	0.6649029
86	0xbeae6925	-0.34064594
87	0xbf2b8837	-0.6700472
88	0xbeef91af	-0.46790835
89	0x3edb030a	0.42775756
90	0x3d5c4f8d	0.053786803
91	0x3d638a18	0.05555162
92	0x3e95732b	0.2918943
93	0xbf2ac480	-0.66706085
94	0xbf2cc825	-0.67492896
95	0x3eace207	0.33766195
96	0x3ec2b04f	0.38025138
97	0x3e64dc75	0.22349723
98	0xbf20c233	-0.62796324
99	0x3f191ee6	0.5981277
100	0x3e890a76	0.26765794
101	0x3ed79cce	0.4211182
102	0xbee73da2	-0.4516421
103	0x3e7891b0	0.24274325
104	0xbebaa94c	-0.36457288
105	0xbe53160b	-0.20613877
106	0xbec39b7e	-0.3820457
107	0xbe2a3639	-0.16622247
108	0xbef6dd6b	-0.48215804
109	0xbe92fdc4	-0.28709233
110	0xbf22b42f	-0.6355619
111	0x3f0971a7	0.53689045
112	0x3ea9f89c	0.33197486
113	0x3efc8a8e	0.4932446
114	0x3ec8ad60	0.39194775
115	0x3ec3ac8a	0.38217574
116	0xbe17eaa6	-0.14835605
117	0x3ee34c49	0.44394138
118	0xbdad92e9	-0.084752865

model.2.weight f4 [119, 119]
0	0xbcf0a206	-0.029374134
1	0xbd90565c	-0.07047722
2	0xbbde45b0	-0.0067832097
3	0xbd89ef58	-0.06735104
4	0x3c3879ac	0.011259478
5	0x3dc14686	0.094372794
6	0xbcfee185	-0.031113395
7	0x3c23d8ee	0.010000451
8	0xbd8da710	-0.0691663
9	0xbda352fd	-0.07974813
10	0xbd981581	-0.074259765
11	0x3de78505	0.11304668
12	0xbcb931cb	-0.022606751
13	0x3d7bfada	0.061518528
14	0x3d8c2305	0.06842617
15	0xbd9fb659	-0.07798452
16	0x3c1bc743	0.009507957
17	0xbd01a32b	-0.03164975
18	0x3d86f945	0.06590513
19	0xbc614aa7	-0.013750709
20	0x3b92e2fa	0.004482624
21	0x3d60e565	0.054906268
22	0xbd226823	-0.039650094
23	0x3d243bd1	0.040096108
24	0xbd58ee0d	-0.052961398
25	0x3da0f0c2	0.07858421
26	0x3d8f0210	0.06982815
27	0x3dab9593	0.083781384
28	0x3d94753e	0.07248925
29	0x3dc079ef	0.09398257
30	0x3d9b21c6	0.07574801
31	0xbc564315	-0.013077517
32	0x3d64dd42	0.05587507
33	0xbdb732f2	-0.08945264
34	0x3c43e1c0	0.011955678
35	0x3da58623	0.08082225
36	0x3d915647	0.07096534
37	0xbd662532	-0.056187816
38	0x3cbe8fad	0.02326187
39	0xbd9ab41d	-0.07553885
40	0x3d2d8d75	0.042371232
41	0xbd92d4c5	-0.07169489
42	0x3cd12621	0.025530877
43	0xbd9f319b	-0.07773133
44	0x3d8fcca3	0.07021453
45	0xbc8645b4	-0.016390659
46	0x3cd44db0	0.02591595
47	0xbc4d4be5	-0.012530302
48	0x3a9ba025	0.0011873288
49	0x3c200ba6	0.009768402
50	0x3d99c01c	0.07507345
51	0xbd77f39f	-0.06053507
52	0xbb92702e	-0.0044689393
53	0x3d15c2b3	0.036562633
54	0x3c4fc8f0	0.012682185
55	0x3db58cc4	0.088647395
56	0x3d9a6afd	0.07539938
57	0xbdbbc12e	-0.091677055
58	0x3d9d26d7	0.07673424
59	0xbd8041dc	-0.06262562
60	0xbc3c644f	-0.011498525
61	0x3d2a9afe	0.04165172
62	0xbcf68e34	-0.030097105
63	0x3ccd8edc	0.025092535
64	0x3d55c2bc	0.052187666
65	0x3db9f74f	0.090803735
66	0x3d057178	0.032578915
67	0xbba9fdd6	-0.0051877303
68	0x3d823803	0.0635834
69	0x3cb820e8	0.022476628
70	0xbcceeab7	-0.025258405
71	0xbd33cd9d	-0.04389726
72	0x3d8193a8	0.06326991
73	0xbdac0671	-0.08399666
74	0xbdb56c0b	-0.08858498
75	0xbd4b8425	-0.04968657
76	0xbd8aba7f	-0.067738526
77	0x3d136bfb	0.03599165
78	0xbd770d85	-0.060315628
79	0x3d88bf3c	0.066771
80	0xbdd28858	-0.10279912
81	0x3d12217a	0.035676457
82	0x3d07d6b3	0.033163738
83	0xbd580e54	-0.05274804
84	0x3b038663	0.0020069114
85	0x3dcfd06a	0.10147174
86	0x3d40ca8e	0.04706817
87	0xbdab9618	-0.083782375
88	0x3c825b50	0.015912682
89	0xbd6cb704	-0.057791725
90	0xbd54c7d4	-0.051948383
91	0x3db6c8f1	0.08925045
92	0x3dc74b98	0.09731215
93	0x3d2b2862	0.04178656
94	0x3d510c95	0.05103739
95	0x3c445d4d	0.011985135
96	0x3c855deb	0.016280135
97	0x3be15a25	0.006877201
98	0xbd97513e	-0.073885426
99	0xbdb5e24c	-0.08881053
100	0xbddf4643	-0.10902073
101	0xbc1cff9a	-0.009582425
102	0x3da74d7e	0.08169077
103	0xbc971734	-0.018443681
104	0xbc80b85c	-0.01571291
105	0x3d8a66dd	0.06757901
106	0xbca4e9d3	-0.020131027
107	0x3dcc60fa	0.09979434
108	0x3cd203ce	0.02563658
109	0xbd94e8dd	-0.07270978
110	0x3ad8eba5	0.001654972
111	0x3d767912	0.060174055
112	0x3da3dbe5	0.08000926
113	0xbd1a81fa	-0.03772161
114	0x3ba4852a	0.005020757
115	0xbc871dfb	-0.016493788
116	0x3d1dd57f	0.038533684
117	0x3c24e786	0.010064965
118	0xbcf180d2	-0.029480372
119	0x3d434451	0.047672573
120	0xbd983228	-0.074314415
121	0xbcd327cf	-0.025775818
122	0x3e20158f	0.15633224
123	0x3becacc3	0.0072227432
124	0xbcb97eeb	-0.022643527
125	0xbdb801ea	-0.0898474
126	0x3d7bbf02	0.061461456
127	0x3bd3e350	0.0064663067
128	0x3dad1acb	0.08452376
129	0x3d3d4185	0.046205062
130	0xbdc026b7	-0.09382384
131	0xbd0d29d4	-0.03446372
132	0xbc288be8	-0.0102872625
133	0x3c9d9135	0.01923428
134	0x3cbcff95	0.02307109
135	0x3c6d7c02	0.014494898
136	0x3d90fc80	0.070794106
137	0x3d5d9e2f	0.054105934
138	0x3d98bf4f	0.07458364
139	0x3db55315	0.08853737
140	0x3c90d4c5	0.017679581
141	0x3df2a9c2	0.11848785
142	0xbca61877	-0.020275338
143	0x3d5252f5	0.051348645
144	0x3d160408	0.03662494
145	0x3cd4f9af	0.025997965
146	0xbe148ba0	-0.14506388
147	0xbd5a43f9	-0.05328748
148	0xbcc025b9	-0.023455488
149	0x3dc14f81	0.09438992
150	0xbd95d5b7	-0.073161535
151	0xbcb39da2	-0.021925751
152	0xbd5b7468	-0.05357781
153	0x3d8a2798	0.06745833
154	0xb937b4f7	-0.00017519655
155	0x3dc56523	0.09638431
156	0xbbf89f76	-0.0075873686
157	0x3daeb2de	0.0853021
158	0xbd755941	-0.059899572
159	0xbd445c9b	-0.047939878
160	0xbd2d179e	-0.04225885
161	0xbaf42b62	-0.0018628652
162	0xbcd03011	-0.025413545
163	0xbd820791	-0.063490994
164	0xbc8100b0	-0.015747398
165	0xbd50884e	-0.05091124
166	0x3d6cfb64	0.057856932
167	0xbde1d534	-0.110269934
168	0xbbc0873c	-0.005875496
169	0x3d7f7ba3	0.06237377
170	0x3d1ea837	0.03873464
171	0xbd92fbc0	-0.07176924
172	0x3c820284	0.01587034
173	0x3c48b0da	0.012249196
174	0xbd764846	-0.06012752
175	0x3dda8461	0.106697805
176	0xbb9df325	-0.004820245
177	0x3c5efc95	0.013610025
178	0xbd85d655	-0.06535021
179	0x3a6fda08	0.00091496157
180	0xbc61effd	-0.013790128
181	0x3d62e215	0.05539139
182	0xbcdd2de2	-0.026999418
183	0x3cfdcc07	0.030981077
184	0xbc981266	-0.01856346
185	0xbd92403a	-0.071411565
186	0x3cc99165	0.024605462
187	0xbc102351	-0.008797483
188	0x3d30fde3	0.043210875
189	0xbda22c33	-0.079185866
190	0x3da1ce35	0.07900659
191	0xbcd06806	-0.025440227
192	0x3d686bf5	0.05674358
193	0x3d465423	0.048420083
194	0x3d7d10a9	0.061783466
195	0xbda2d189	-0.07950122
196	0x3d4f6bd3	0.05063994
197	0xbd1fb09f	-0.0389868
198	0xbc49800d	-0.012298596
199	0xbced480a	-0.028965015
200	0xbd72a7d8	-0.0592421
201	0x3b718c5e	0.0036857347
202	0x3d0c9d24	0.03432955
203	0x3d10c4ce	0.035343938
204	0x3b2af6d6	0.0026087067
205	0xbd3cb00f	-0.04606634
206	0x3db0982f	0.08622777
207	0x3db4a895	0.08821217
208	0x3d93f1c4	0.072238475
209	0x3d5aec87	0.053448226
210	0xbd12e8b5	-0.035866458
211	0xbd6da8f3	-0.05802245
212	0x3d3596f1	0.044333402
213	0xbdb43b05	-0.088003196
214	0xbdc19647	-0.09452491
215	0x3db81d90	0.089900136
216	0x3c852759	0.016254114
217	0x3d3945d6	0.045232616
218	0xbd97962a	-0.074016884
219	0xbc0a244a	-0.008431504
220	0xbc2e568b	-0.010640751
221	0x3bb2fead	0.0054624886
222	0xbd2eae74	-0.04264684
223	0xbdb46b6a	-0.0880955
224	0x3d9249d0	0.07142985
225	0x3bc88aae	0.0061200475
226	0x3d717dd8	0.058957905
227	0x3d498803	0.049201977
228	0x3ce36b11	0.027761014
229	0xbc0f24bc	-0.0087367855
230	0xbcd10fdc	-0.025520258
231	0xbd0f1da4	-0.034940377
232	0x3db51797	0.0884239
233	0x3dc602ac	0.09668478
234	0xbdba0eba	-0.0908484
235	0xbd88640c	-0.066597074
236	0x3d8c43b8	0.06848854
237	0x3e0cdc56	0.13755926
238	0xbdb6b3ee	-0.089210376
239	0xbd1d2870	-0.038368642
240	0x3d42a00b	0.04751591
241	0x3d90bd82	0.07067396
242	0xbcbd2e30	-0.023093313
243	0x3d0f4242	0.034975298
244	0xbdade136	-0.08490221
245	0xbd45c7ff	-0.048286434
246	0xbcbb0756	-0.022830646
247	0xbc447534	-0.011990834
248	0x3da61189	0.08108813
249	0x3d51300a	0.051071204
250	0x3da63746	0.08116011
251	0xbd161bce	-0.03664761
252	0x3d27eb82	0.040996082
253	0x3a5a9a9c	0.00083390786
254	0x3d7d4389	0.061831985
255	0xbd42aa9d	-0.04752599

model.2.bias f4 [119]
0	0xbd61efd7	-0.05516037
1	0xbd59c364	-0.053164855
2	0xbc18b32b	-0.009320061
3	0x3cdc3c0b	0.0268841
4	0x3d245aa7	0.040125515
5	0xbd21b0cd	-0.03947525
6	0xbdcf7086	-0.10128884
7	0xbbfc5bee	-0.0077013886
8	0xbceec7bc	-0.029147975
9	0xbd650e5d	-0.0559219
10	0xbd55d7e4	-0.052207842
11	0x3d04375b	0.032279354
12	0x3d96c87e	0.073624596
13	0x3d4d8eec	0.05018513
14	0x3c643cf2	0.013930546
15	0x3d9ed9fe	0.077564225
16	0xbdbf07e0	-0.09327674
17	0xbbdde2c4	-0.0067714173
18	0xbda1fca7	-0.07909518
19	0x3d256b16	0.04038533
20	0x3d6202a5	0.055178303
21	0x3d8c0e74	0.06838694
22	0x3dca21e1	0.09869743
23	0xbd57a1ef	-0.052644666
24	0x3bf397c1	0.007433862
25	0x3d8ace42	0.06777622
26	0x3dc7221a	0.09723301
27	0x3d55bfe4	0.052184954
28	0x3d8ccc0c	0.06874856
29	0xbdb22545	-0.08698515
30	0xbae3854f	-0.0017358455
31	0x3d91fd97	0.071284465
32	0xbcc4416d	-0.023956979
33	0xbd16a5a0	-0.036779046
34	0xbc770699	-0.015077257
35	0x3dc2ac45	0.09505514
36	0x3d9c1c76	0.07622616
37	0xbbbcb873	-0.0057592927
38	0xbd56a040	-0.05239892
39	0x3be7de76	0.00707608
40	0x3d6e8ca7	0.058239605
41	0xbdb82608	-0.08991629
42	0x3d507135	0.050889213
43	0xbcc5bf86	-0.024139177
44	0xbcf29343	-0.029611235
45	0x3c405ef7	0.011741391
46	0x3d1b33cd	0.037891198
47	0xbc93d32c	-0.01804503
48	0xbc889eb1	-0.016677232
49	0x3d63de54	0.05563195
50	0xbd1d4dba	-0.038404204
51	0xbc93bdd6	-0.018034857
52	0x3c68984d	0.014196468
53	0x3d61ff11	0.05517489
54	0xba9618e2	-0.0011451507
55	0x3d78a061	0.060699824
56	0x3c423305	0.011852984
57	0xbc78cb35	-0.015185167
58	0xbd5dcec6	-0.054152273
59	0x3c5f65cf	0.013635113
60	0xbd94403d	-0.07238815
61	0x3db26078	0.08709806
62	0x3cdc5bfa	0.026899327
63	0x3bc1f581	0.005919159
64	0x3db0c08a	0.08630474
65	0x3c3d1241	0.011539997
66	0x3b619489	0.003442081
67	0xbcc5153e	-0.02405798
68	0xbd846876	-0.06465237
69	0xbd67b939	-0.056573126
70	0x3c928280	0.017884493
71	0x3d205194	0.0391403
72	0xbd3c0435	-0.04590245
73	0xbc82ecbb	-0.015982023
74	0x3d6ba784	0.057532802
75	0xbd294f61	-0.041335467
76	0x3c9e692a	0.019337256
77	0x3d515eee	0.051115923
78	0xbd2e0586	-0.042485736
79	0x3d559edb	0.05215345
80	0xbd80a69e	-0.0628178
81	0xbcfacb41	-0.030614497
82	0xbd87a549	-0.066233225
83	0x3c7c5130	0.015400216
84	0xbd972279	-0.07379622
85	0x3db1ab71	0.08675278
86	0xbcf8dc0f	-0.03037837
87	0xbd382679	-0.044958565
88	0x3cc49ccf	0.024000553
89	0xbda94cd3	-0.08266606
90	0xbc7803b6	-0.0151376035
91	0xbd82b103	-0.063814186
92	0xbcc73d0a	-0.024321098
93	0xbd7986ba	-0.0609195
94	0xbd002cde	-0.03129279
95	0x3dbe7f67	0.09301644
96	0x3bc00e2f	0.005861066
97	0xbc7b9ab8	-0.015356712
98	0x3c97c718	0.018527552
99	0x3d0f1f81	0.034942154
100	0xbd7d73fb	-0.061878186
101	0x3d9593c1	0.073035724
102	0xbcffbcfb	-0.031218043
103	0x3bcbcfc4	0.006219836
104	0x3da0fb30	0.0786041
105	0xbd45ef88	-0.048324138
106	0x3b5a997d	0.0033355646
107	0x3d3744a7	0.044743206
108	0x3d761600	0.060079575
109	0xbd84632e	-0.064642295
110	0xbd8ec326	-0.06970815
111	0xbc84daf2	-0.016217683
112	0xbd30466b	-0.043035906
113	0x3d1f6371	0.038913194
114	0x3b609960	0.0034271106
115	0xbc936cec	-0.017996274
116	0xbd3c171c	-0.045920476
117	0x3c53dfa3	0.012931737
118	0xbdb1877e	-0.08668421

model.4.weight f4 [2, 119]
0	0xbd81c116	-0.06335656
1	0x3e0d0140	0.13770008
2	0xbcb80d1c	-0.022467189
3	0x3aaf5b7f	0.0013378708
4	0xbd427181	-0.047471527
5	0xbd4cb8cc	-0.049980924
6	0xbbdcc544	-0.006737383
7	0xbd9fb053	-0.07797303
8	0x3df48240	0.11938906
9	0xbddb4e75	-0.10708324
10	0x3d0d07c9	0.034431253
11	0xbdaf5dc5	-0.08562807
12	0xbd31590b	-0.04329781
13	0x3d375503	0.044758808
14	0xbd78c080	-0.060730457
15	0xbdb6b376	-0.08920948
16	0xbc9a5e0f	-0.018843679
17	0xbceedc53	-0.029157793
18	0x3cc5aa0c	0.024128936
19	0x3db63df0	0.088985324
20	0xbd83ca83	-0.064351104
21	0xbd8045c9	-0.062633105
22	0x3c820316	0.015870612
23	0xbd128df5	-0.035779912
24	0xbcd9519e	-0.026528176
25	0x3d5fcaa9	0.05463663
26	0x3d1807f2	0.037116952
27	0x3ddbfe3e	0.10741852
28	0xbdc07b24	-0.09398487
29	0x3ca54a64	0.020177074
30	0x3d9790f8	0.074006975
31	0xbd2654ab	-0.04060809
32	0xbd463237	-0.048387732
33	0x3def4626	0.11683302
34	0xbd1a63d1	-0.03769285
35	0xbd9cef67	-0.0766285
36	0x3ca2ca9a	0.019871999
37	0xbd252509	-0.040318523
38	0xbd0bfcec	-0.034176752
39	0x3d13be24	0.036070004
40	0x3dcaf613	0.09910216
41	0x3d32b6eb	0.043631475
42	0x3dd1e087	0.10247903
43	0x3dc4a5fe	0.09601973
44	0x3e1d791d	0.15378232
45	0x3d72fd00	0.05932331
46	0x3d2866f8	0.041113824
47	0xbd3a46e8	-0.045477778
48	0x3cab6969	0.020924287
49	0x3d500e1b	0.050794702
50	0x3d9c1e45	0.07622961
51	0x3de14945	0.11000303
52	0xbd845c94	-0.064629704
53	0x3c42b892	0.011884825
54	0xbdf0f709	-0.11765868
55	0xbd62fc00	-0.055416107
56	0x3d02dc63	0.03194846
57	0x3ce71659	0.028208898
58	0x3d6541af	0.055970844
59	0xbba6f775	-0.005095417
60	0xbcc70988	-0.024296537
61	0xbdba77b8	-0.09104866
62	0x3c464d31	0.012103365
63	0x3dc92124	0.09820774
64	0xbdea113c	-0.114290684
65	0x3e03d8fb	0.1287574
66	0x3d5ce9e5	0.053933997
67	0xbdfbd343	-0.12296154
68	0xbde0dd12	-0.10979666
69	0x3d897c7b	0.06713196
70	0x3df1ea2b	0.11812242
71	0xbbdf9282	-0.006822885
72	0xbbb35143	-0.0054723336
73	0xbd359cb9	-0.044338915
74	0xbd97ab2c	-0.07405695
75	0xbd2e147e	-0.04250001
76	0x3d010cea	0.031506456
77	0xbd20dc66	-0.03927269
78	0xbcb54149	-0.022125857
79	0x3d98d396	0.07462232
80	0xbdbf2026	-0.09332304
81	0xbd8fd7e0	-0.07023597
82	0x3c39bfac	0.011337202
83	0x3d3e97d6	0.04653152
84	0x3dd51485	0.104043044
85	0xbdcb7067	-0.099335484
86	0xbd8189c5	-0.063251056
87	0xbd9bdfb5	-0.07611028
88	0xbdbdda88	-0.09270197
89	0xbd8db19a	-0.069186404
90	0xbd96d687	-0.073651366
91	0x3deda65b	0.116039954
92	0x3dc9284e	0.09822141
93	0xbdefe6b2	-0.117139235
94	0xbd938d63	-0.07204702
95	0x3cff9904	0.031200893
96	0x3dd7f9b6	0.105456755
97	0xbc8c0cf0	-0.017096013
98	0x3c39a2a5	0.011330281
99	0xbd5dfb75	-0.054194886
100	0x3d3bae3a	0.045820452
101	0xbd3afd9b	-0.045652013
102	0x3d03b075	0.032150704
103	0xbd98aa93	-0.074544095
104	0xbd8df440	-0.069313526
105	0x3d9e901c	0.077423304
106	0xbdf1050a	-0.11768539
107	0xbd196b83	-0.037456047
108	0x3d2d8a9e	0.042368524
109	0xbce16ae4	-0.02751679
110	0xbd76f842	-0.06029535
111	0xbde45988	-0.11149889
112	0x3ccc2500	0.024919987
113	0x3d8b5eaa	0.06805165
114	0x3db49cc1	0.08818961
115	0xbd26a852	-0.040687867
116	0xbb224045	-0.0024757546
117	0x3db9b57a	0.09067817
118	0x3d914407	0.07093053
119	0x3d049b06	0.032374404
120	0x3cbf42a9	0.023347216
121	0xbe02936a	-0.12751547
122	0x3d9604c4	0.07325128
123	0xbd48f628	-0.049062878
124	0x3bfbcba1	0.0076841866
125	0xbd8866db	-0.06660243
126	0xbd08850d	-0.033330012
127	0xbcf7f0fd	-0.03026628
128	0xbd1ed5f4	-0.03877826
129	0xbd0e49bc	-0.034738287
130	0xbc573914	-0.013136167
131	0x3ca98658	0.020693943
132	0xbd9315e6	-0.07181911
133	0xbcd9e426	-0.026598047
134	0x3d4604ff	0.04834461
135	0x3d86bdf9	0.06579203
136	0x3da9d23b	0.082920514
137	0x3d847d24	0.06469181
138	0xbdeb6c3e	-0.11495255
139	0xbd97b8ca	-0.074082926
140	0x3d8edd60	0.06975818
141	0x3d91b849	0.07115228
142	0x3d30b72a	0.04314343
143	0xbc93683d	-0.01799404
144	0x3cc8c078	0.024505839
145	0x3d5208be	0.05127787
146	0xbcd5e540	-0.026110291
147	0x3dad23b3	0.08454075
148	0x3c353947	0.011061019
149	0xbdc93ba2	-0.09825827
150	0x3db06482	0.0861292
151	0x3de18b34	0.11012879
152	0x3bbf5ca0	0.005839899
153	0x3db86f4c	0.09005603
154	0xbc9f4e67	-0.019446565
155	0x3e08bdff	0.13353728
156	0x3ddcd276	0.1078233
157	0x3d1d8585	0.038457412
158	0xbe040e54	-0.12896091
159	0xbd9e2225	-0.07721356
160	0xbd6399e8	-0.0555667
161	0x3c76157a	0.015019769
162	0xbd753702	-0.059866913
163	0x3c9c5f02	0.019088272
164	0x3d73ca3b	0.059519034
165	0xbd8fa058	-0.07013005
166	0x3caecc6c	0.02133771
167	0xbd833cc7	-0.06408077
168	0xbd6a35ad	-0.057180095
169	0xbe05d951	-0.13071181
170	0xbd587776	-0.0528483
171	0x3a52c222	0.00080397923
172	0x3c859df0	0.016310662
173	0x3c40f3ff	0.011776923
174	0xbd23992e	-0.039941005
175	0xbd93939c	-0.07205889
176	0xbd8b46ca	-0.06800611
177	0xbd13763a	-0.03600142
178	0x3dfd9f1f	0.123838656
179	0x3d2c0afe	0.04200267
180	0xbd27528e	-0.040850215
181	0xbd84f928	-0.06492835
182	0xbbb81c1c	-0.0056185853
183	0xbcfaee62	-0.030631248
184	0xbd2f2404	-0.042758957
185	0xbcdeb6d3	-0.027186787
186	0x3deb80d9	0.11499185
187	0xbb752bdb	-0.0037410173
188	0x3d65a95f	0.056069728
189	0xbdaca9ce	-0.08430825
190	0x3cfd5916	0.030926269
191	0xbcc367f7	-0.023853285
192	0x3d59a556	0.053136192
193	0x3db10d07	0.08645063
194	0x3dfbfbf3	0.12303915
195	0xbca5ef28	-0.02025564
196	0x3daa604a	0.08319147
197	0xbdda81b4	-0.1066927
198	0xbd89170f	-0.06693851
199	0x3d94faa9	0.07274372
200	0x3c5d45fe	0.013505457
201	0x3d906478	0.07050413
202	0xbd8a9682	-0.06766988
203	0xbcef6d98	-0.029227063
204	0xbc95aeaa	-0.018271763
205	0x3d74ba5e	0.059748046
206	0x3d7863f2	0.06064219
207	0x3dd9540f	0.10611736
208	0x3d6f37e7	0.058402922
209	0xba23dd81	-0.0006250963
210	0xbbfe7c7c	-0.0077663045
211	0xbdd193cb	-0.102332674
212	0xbc752f1b	-0.014964844
213	0x3d12d076	0.035843335
214	0x3d6d85fc	0.057989106
215	0xbc6e61d4	-0.014549691
216	0x3dc0eb38	0.094198644
217	0xbbb63632	-0.00556066
218	0x3d58fbb8	0.052974433
219	0xbd5134a8	-0.051075608
220	0xbcbc507b	-0.022987595
221	0x3dcd5393	0.10025706
222	0xbcad7725	-0.021174977
223	0x3dc24cc5	0.09487299
224	0xbda7ff01	-0.08202935
225	0x3d626076	0.055267774
226	0x3d7e9d9d	0.06216203
227	0xbdfe65ca	-0.124217585
228	0x3cc5e984	0.0241592
229	0x3d7e8b03	0.06214429
230	0xbcc33161	-0.023827257
231	0xbd71d105	-0.059037227
232	0xbd9085ec	-0.070567936
233	0xbdca5660	-0.09879756
234	0x3d8fe5d3	0.07026257
235	0x3b1425b4	0.002260548
236	0xbda1f1f0	-0.07907474
237	0xbbb8a7fa	-0.0056352587

model.4.bias f4 [2]
0	0xbc419732	-0.011815833
1	0xbc65aeb0	-0.0140186995

exp_avg f4 [119, 2]
0	0x383563f9	4.324687e-05
1	0x3802eb0f	3.121333e-05
2	0xb887cb10	-6.475125e-05
3	0xb84aeece	-4.8382957e-05
4	0xbc8c4ddf	-0.017126976
5	0xbc905795	-0.017619887
6	0x3cae4d28	0.021277025
7	0x3cb222b8	0.02174507
8	0x348e3272	2.6486265e-07
9	0x3448ca9f	1.8700165e-07
10	0x37b04745	2.1014022e-05
11	0x37925a23	1.744653e-05
12	0x39ba7468	0.00035563414
13	0x399b7784	0.0002965295
14	0x378ea00e	1.700225e-05
15	0x37583900	1.2887875e-05
16	0x389ed108	7.572962e-05
17	0x386887e8	5.5439683e-05
18	0x3c898779	0.016788231
19	0x3c8c6068	0.017135814
20	0xb78b9f19	-1.6644177e-05
21	0xb748af40	-1.19617325e-05
22	0xbc598ae5	-0.013277744
23	0xbc615384	-0.013752822
24	0xb7db22b7	-2.6123e-05
25	0xb7a7e882	-2.0016221e-05
26	0xbc2749bf	-0.0102104535
27	0xbc2d18a7	-0.01056496
28	0x38322959	4.2477015e-05
29	0x380737f8	3.2238633e-05
30	0xb87a746c	-5.971307e-05
31	0xb8412a42	-4.605414e-05
32	0xb86f22d5	-5.701448e-05
33	0xb836c8a1	-4.357903e-05
34	0x3901a8dc	0.00012365304
35	0x393cd12f	0.00018007004
36	0x385f4b2b	5.323735e-05
37	0x37c68aeb	2.3668128e-05
38	0xb6b8950c	-5.5009787e-06
39	0xb68931c5	-4.088712e-06
40	0xb8b2f8b8	-8.534029e-05
41	0xb88897db	-6.513271e-05
42	0x37b8d2b5	2.2032627e-05
43	0x36fd1785	7.5427256e-06
44	0xb99c37b0	-0.0002979613
45	0xb9699d24	-0.00022279151
46	0x37aa8140	2.0325766e-05
47	0xb7e81c2e	-2.7669677e-05
48	0xb8274f9d	-3.989005e-05
49	0xb8015d69	-3.084299e-05
50	0xbb59751e	-0.003318138
51	0xbb6bef89	-0.0036000928
52	0xb39e4833	-7.370581e-08
53	0xb28a8cb5	-1.61293e-08
54	0xbc68d07e	-0.014209865
55	0xbc6ddad7	-0.0145175075
56	0x371f810b	9.507184e-06
57	0x36e51638	6.8273184e-06
58	0x3706dcd6	8.03844e-06
59	0x36bcbea0	5.6250283e-06
60	0xb711976d	-8.67793e-06
61	0xb6da3bd3	-6.5038707e-06
62	0x38373b03	4.368556e-05
63	0x380fd114	3.4288576e-05
64	0x381d6e0f	3.7534217e-05
65	0x37fb130c	2.9930401e-05
66	0xb66d68ce	-3.5376756e-06
67	0xb5fff337	-1.9069765e-06
68	0xb7150ea7	-8.884504e-06
69	0xb6e42740	-6.799499e-06
70	0xb5c52325	-1.4687872e-06
71	0xb5423512	-7.234786e-07
72	0xb8dd80b0	-0.00010562071
73	0xb8ab19bf	-8.158711e-05
74	0x3ca33656	0.01992337
75	0x3ca7f689	0.0205033
76	0xb8f136e1	-0.000115019975
77	0xb89f9bb9	-7.6107164e-05
78	0xb7b8df4b	-2.2038488e-05
79	0xb7834fd3	-1.5653588e-05
80	0x39896a6b	0.00026209964
81	0x39400e3f	0.00018315854
82	0x384c6091	4.8727325e-05
83	0x38214d9e	3.8457678e-05
84	0xb72a05c3	-1.0134131e-05
85	0xb64b3a7c	-3.02834e-06
86	0x36e162fa	6.717045e-06
87	0x3697151d	4.5026086e-06
88	0x3691a052	4.3400005e-06
89	0x363d69bf	2.8224747e-06
90	0x38ad1340	8.2528684e-05
91	0x38869dca	6.4190084e-05
92	0xb883ccf1	-6.28474e-05
93	0xb84b1212	-4.84158e-05
94	0x362cf7cf	2.577424e-06
95	0x36069d35	2.0059063e-06
96	0x38b78914	8.751653e-05
97	0xb8a830b1	-8.019934e-05
98	0xbc860d2e	-0.016363706
99	0xbc8944a4	-0.016756363
100	0x38a5122b	7.871197e-05
101	0x38798fab	5.9500027e-05
102	0xb7dcff80	-2.634502e-05
103	0xb7737a54	-1.451241e-05
104	0x37ea2425	2.7911805e-05
105	0x379532bb	1.7785807e-05
106	0xb8d7bdc0	-0.000102873426
107	0xb885d781	-6.382075e-05
108	0x390ccf27	0.0001342861
109	0x38d85d05	0.00010317009
110	0xbc8aa86b	-0.016926011
111	0xbc8f9463	-0.017526811
112	0xb707e8f6	-8.1008675e-06
113	0xb6b03040	-5.250826e-06
114	0xb4873798	-2.518616e-07
115	0xb4144e2b	-1.3812011e-07
116	0x368b5d5a	4.1533904e-06
117	0x364d71d7	3.0613644e-06
118	0xb76a4ca9	-1.3965336e-05
119	0xb725803c	-9.864623e-06
120	0x36dfcc78	6.669721e-06
121	0x36a1c9f4	4.8216843e-06
122	0x3804e7e9	3.1687236e-05
123	0x37cf8dda	2.4742378e-05
124	0xb674312b	-3.6387453e-06
125	0xb6297fe8	-2.5257414e-06
126	0xbca3ad81	-0.019980194
127	0xbca78134	-0.020447351
128	0xb785b455	-1.593881e-05
129	0xb74e50d2	-1.2297374e-05
130	0x383206c0	4.2444794e-05
131	0x37f58aa8	2.9270843e-05
132	0x374f88be	1.2369999e-05
133	0x371f9b60	9.513315e-06
134	0x3893dc41	7.050532e-05
135	0x385ba437	5.2366606e-05
136	0xbc57afa1	-0.013164432
137	0xbc5dc230	-0.013535067
138	0xb8cdc3cf	-9.811634e-05
139	0xb88e6c0e	-6.7912144e-05
140	0xb8d67377	-0.00010225822
141	0xb8a3acfd	-7.804667e-05
142	0xb8b18937	-8.465576e-05
143	0xb86f095f	-5.6990768e-05
144	0xb7be5648	-2.2689943e-05
145	0xb794d880	-1.774379e-05
146	0xb803d036	-3.1426745e-05
147	0xb7c6fa53	-2.3720006e-05
148	0x356ea5b0	8.8903016e-07
149	0x35588dee	8.0672805e-07
150	0xb8e74414	-0.00011027619
151	0xb8b3d6e4	-8.5754116e-05
152	0x391c54cd	0.0001490891
153	0x38eda463	0.0001133166
154	0xb6d876d0	-6.4511332e-06
155	0xb6a69465	-4.964461e-06
156	0xb85ab716	-5.2145762e-05
157	0xb8078a3e	-3.2315256e-05
158	0x35849f8d	9.881202e-07
159	0x3564e585	8.5270614e-07
160	0xb8873f54	-6.4490974e-05
161	0xb842a0b8	-4.6402885e-05
162	0x38bc28fb	8.972172e-05
163	0x3891ef98	6.9587666e-05
164	0x37d3c7c1	2.5246178e-05
165	0x37a684b7	1.9850542e-05
166	0x36945b27	4.4213552e-06
167	0x364ee629	3.0830363e-06
168	0xb5a79353	-1.2485347e-06
169	0xb530157b	-6.559637e-07
170	0xbc2207b7	-0.009889535
171	0xbc26cb91	-0.01018037
172	0xb60629db	-1.999192e-06
173	0xb5a14132	-1.2014409e-06
174	0x3c92241f	0.01783949
175	0x3c955207	0.01822759
176	0xb70b1c1a	-8.2915885e-06
177	0xb6d32c18	-6.293423e-06
178	0xb81ba568	-3.7108926e-05
179	0x368b0975	4.1436238e-06
180	0xb87c798f	-6.0194692e-05
181	0xb8338b63	-4.280674e-05
182	0xbc996b61	-0.01872796
183	0xbc9c7d2c	-0.019102655
184	0xbc980f3d	-0.018561954
185	0xbc9b4b02	-0.018956665
186	0x385b6231	5.2305117e-05
187	0x380ef5c2	3.4084318e-05
188	0x379ab482	1.8442286e-05
189	0x375d741b	1.3199659e-05
190	0xba9c061f	-0.001190368
191	0xbaa578b2	-0.0012624471
192	0xb7b62bd3	-2.1716498e-05
193	0xb78cfabd	-1.680606e-05
194	0x36bac020	5.5655983e-06
195	0x366c80a1	3.5241612e-06
196	0xb7586da6	-1.2900133e-05
197	0xb7095bf2	-8.187244e-06
198	0xb61bb1eb	-2.3200362e-06
199	0xb5c33184	-1.4543043e-06
200	0xb8c22373	-9.257244e-05
201	0xb842f400	-4.6480447e-05
202	0xb63d9c6d	-2.8254246e-06
203	0xb5e9b694	-1.741299e-06
204	0x3746984d	1.183718e-05
205	0x370fcfae	8.571818e-06
206	0x3900d620	0.00012286799
207	0x38c1594b	9.219589e-05
208	0xb8088e5b	-3.2557506e-05
209	0xb7dc71d4	-2.6279049e-05
210	0xb9568f7d	-0.00020462084
211	0xb917d793	-0.0001448079
212	0xb7ee931b	-2.8440312e-05
213	0xb7bb56f8	-2.2332635e-05
214	0x38b98c77	8.847651e-05
215	0x3883a00d	6.2763786e-05
216	0xb878bfbc	-5.9306374e-05
217	0xb842c07a	-4.6432462e-05
218	0xb78b353f	-1.6594886e-05
219	0xb73e73cf	-1.1351846e-05
220	0xbc45dc1d	-0.012076405
221	0xbc4b96a1	-0.012426049
222	0x397936e7	0.00023766943
223	0x39274651	0.00015952556
224	0xbc620a74	-0.0137964375
225	0xbc70315c	-0.014660206
226	0xb8f10d65	-0.000114942704
227	0xb8b5e24f	-8.672906e-05
228	0xb5b2c62d	-1.331971e-06
229	0xb5537531	-7.877416e-07
230	0x3708d88a	8.156649e-06
231	0x36ce1f3e	6.1429155e-06
232	0x359e5def	1.1799256e-06
233	0x358cf7cc	1.0502931e-06
234	0xb819861a	-3.6602934e-05
235	0xb7efb933	-2.857726e-05
236	0x3cb5e6e2	0.02220482
237	0x3cba13c2	0.0227145

exp_avg_sq f4 [119, 2]
0	0x36890193	4.0831014e-06
1	0x3657693e	3.2098756e-06
2	0x369d75b7	4.6926684e-06
3	0x35f6cfb4	1.8388878e-06
4	0x3aaaf18b	0.0013041956
5	0x3aa8e94e	0.0012886913
6	0x3b252bb4	0.002520305
7	0x3b24baf4	0.0025135847
8	0x334ed313	4.8155083e-08
9	0x343fa955	1.7849864e-07
10	0x369dbad5	4.7007147e-06
11	0x365340f9	3.147927e-06
12	0x35ff6541	1.9028449e-06
13	0x35805851	9.562447e-07
14	0x323ff39a	1.1173052e-08
15	0x310f9ce3	2.0898419e-09
16	0x3735f85f	1.0846269e-05
17	0x3711dc12	8.693913e-06
18	0x3a66f026	0.00088095886
19	0x3a65d38d	0.000876718
20	0x362ad023	2.5453126e-06
21	0x35e085ec	1.6728277e-06
22	0x3a877af5	0.0010336327
23	0x3a8909d7	0.0010455203
24	0x33da0e2e	1.0153995e-07
25	0x31916f88	4.232735e-09
26	0x3a74f289	0.0009344002
27	0x3a78d68a	0.0009492418
28	0x3272ce84	1.413321e-08
29	0x34740cda	2.2728946e-07
30	0x3544af16	7.3270473e-07
31	0x34234cbe	1.5208477e-07
32	0x342128e9	1.5009176e-07
33	0x31b642e4	5.3045017e-09
34	0x36c26158	5.792983e-06
35	0x3786bc11	1.606162e-05
36	0x33b95b7f	8.631377e-08
37	0x34a65b01	3.0986124e-07
38	0x300b0a80	5.0582827e-10
39	0x342cd9d1	1.609799e-07
40	0x33dbe91e	1.0240386e-07
41	0x3116079a	2.1832194e-09
42	0x342b1baa	1.593568e-07
43	0x358a8d0d	1.0322852e-06
44	0x36c9e759	6.017199e-06
45	0x360d2a37	2.103521e-06
46	0x341b1156	1.4441807e-07
47	0x36217019	2.405612e-06
48	0x35af9abe	1.3083552e-06
49	0x375e00a4	1.323238e-05
50	0x37c50ee5	2.3491166e-05
51	0x37b2607e	2.1264186e-05
52	0x34cf1e97	3.8579012e-07
53	0x34b72adc	3.411759e-07
54	0x39ec4f88	0.00045072683
55	0x39e941fa	0.0004449038
56	0x33fd9b5a	1.1809489e-07
57	0x32db6b19	2.5543658e-08
58	0x350a7073	5.157264e-07
59	0x34a351bd	3.0420588e-07
60	0x3481d198	2.4180622e-07
61	0x35851af1	9.917113e-07
62	0x3000b02a	4.6816473e-10
63	0x332454fa	3.826151e-08
64	0x34e3475e	4.233397e-07
65	0x36a4d69e	4.9125656e-06
66	0x337fc9a8	5.955522e-08
67	0x328ca463	1.63729e-08
68	0x351ae96a	5.770913e-07
69	0x329dee96	1.8385702e-08
70	0x330ba18d	3.251039e-08
71	0x32dfb8b8	2.6044617e-08
72	0x37437e02	1.1652244e-05
73	0x3524beb4	6.137227e-07
74	0x3b30f8a0	0.002700366
75	0x3b2f7151	0.0026770423
76	0x35b8360a	1.3724796e-06
77	0x371f64d0	9.500611e-06
78	0x30f555a1	1.7850433e-09
79	0x33e4964c	1.0644416e-07
80	0x36f0056a	7.1531877e-06
81	0x35a0486d	1.1942008e-06
82	0x35221476	6.037948e-07
83	0x34ddf2c5	4.1341096e-07
84	0x3413291f	1.3705402e-07
85	0x35bee434	1.4222519e-06
86	0x338f93bb	6.6858284e-08
87	0x32be0f20	2.212579e-08
88	0x338e85ab	6.636704e-08
89	0x31e87fc9	6.766616e-09
90	0x33efcdad	1.1166717e-07
91	0x35dbe450	1.6383219e-06
92	0x30f8d04d	1.8103578e-09
93	0x3571e228	9.0108597e-07
94	0x35e49c29	1.7032772e-06
95	0x366e229a	3.5484904e-06
96	0x370c2156	8.352412e-06
97	0x36ab5878	5.1064962e-06
98	0x3ada575a	0.0016658113
99	0x3ad956f0	0.0016581696
100	0x35600b2e	8.346277e-07
101	0x326509e8	1.3331807e-08
102	0x348458d2	2.465154e-07
103	0x361e65f4	2.360318e-06
104	0x3218259f	8.8561185e-09
105	0x353e88bb	7.0979485e-07
106	0x3457693c	2.006172e-07
107	0x36a7ec2a	5.004481e-06
108	0x3582dd05	9.75008e-07
109	0x33a46e7d	7.656943e-08
110	0x3b09633f	0.0020963696
111	0x3b09142c	0.0020916564
112	0x342715bd	1.5560995e-07
113	0x32cf4dab	2.4133291e-08
114	0x34e2311e	4.2131518e-07
115	0x3687a2cc	4.0422656e-06
116	0x332ef202	4.0732637e-08
117	0x332e93e6	4.0647045e-08
118	0x360592f4	1.9904082e-06
119	0x36b25814	5.315067e-06
120	0x3796c612	1.7973627e-05
121	0x35a4047f	1.2220261e-06
122	0x31810274	3.754673e-09
123	0x344c43de	1.902367e-07
124	0x356019ae	8.348387e-07
125	0x3707aa1f	8.086236e-06
126	0x3aedf058	0.0018153293
127	0x3af03ec5	0.0018329254
128	0x3544df97	7.3341056e-07
129	0x3551e494	7.819119e-07
130	0x33585085	5.036465e-08
131	0x2fe34b4c	4.134456e-10
132	0x33490c69	4.6810246e-08
133	0x333af712	4.353121e-08
134	0x360d741e	2.1078226e-06
135	0x30b2b194	1.3001675e-09
136	0x3a54da55	0.0008119692
137	0x3a543776	0.00080954225
138	0x3612bc82	2.1865421e-06
139	0x3532e1a3	6.663851e-07
140	0x35748dea	9.1103595e-07
141	0x373d39e8	1.127876e-05
142	0x364e677b	3.0756626e-06
143	0x3150ade1	3.0366822e-09
144	0x333684ef	4.249608e-08
145	0x35192fbe	5.7066416e-07
146	0x3229226d	9.844922e-09
147	0x34e72ef0	4.3061254e-07
148	0x34e73cad	4.307125e-07
149	0x358af32e	1.0352576e-06
150	0x340e4865	1.3251118e-07
151	0x327fc7b5	1.4888362e-08
152	0x32c1408a	2.2497506e-08
153	0x37508fcf	1.2431249e-05
154	0x35608012	8.363287e-07
155	0x34d682ba	3.9955722e-07
156	0x33c13255	8.996418e-08
157	0x34fae220	4.6730656e-07
158	0x33f94c17	1.1608807e-07
159	0x35648f4b	8.514514e-07
160	0x3518f72f	5.698411e-07
161	0x3426e2f6	1.5542523e-07
162	0x3345a77c	4.6019963e-08
163	0x31b6e8a1	5.323344e-09
164	0x35d7da15	1.6082219e-06
165	0x341669ae	1.4008285e-07
166	0x34a341f5	3.0409106e-07
167	0x341f6fdd	1.4848725e-07
168	0x3407f921	1.2663487e-07
169	0x34bd556c	3.5266146e-07
170	0x396a051d	0.00022317884
171	0x39682fef	0.00022143101
172	0x3352be7b	4.9067676e-08
173	0x3508260f	5.071933e-07
174	0x3ae5d597	0.0017534968
175	0x3ae9bb67	0.001783234
176	0x3502511c	4.8546804e-07
177	0x350f8a0a	5.3472525e-07
178	0x350c2ce9	5.2219417e-07
179	0x35817ea3	9.648105e-07
180	0x34b24390	3.3204242e-07
181	0x36ab8e39	5.112754e-06
182	0x3ae819bb	0.0017707864
183	0x3ae7cddf	0.0017685256
184	0x3aa03c6a	0.0012225036
185	0x3aa14327	0.0012303338
186	0x33558839	4.971682e-08
187	0x355397e1	7.882464e-07
188	0x34a52864	3.0763033e-07
189	0x300096be	4.6780346e-10
190	0x36b6c66a	5.447121e-06
191	0x371a83e4	9.2098235e-06
192	0x308a40fb	1.005929e-09
193	0x33188c84	3.5518056e-08
194	0x2d209828	9.1287325e-12
195	0x301d4898	5.721943e-10
196	0x333ee5ae	4.4446715e-08
197	0x35efc321	1.7863678e-06
198	0x36b83037	5.4892403e-06
199	0x34ce4e00	3.8427243e-07
200	0x35de8c90	1.6581198e-06
201	0x369837a6	4.5364313e-06
202	0x36163754	2.2383947e-06
203	0x365df7af	3.3075737e-06
204	0x34b70c9e	3.4095586e-07
205	0x322e4d00	1.0145641e-08
206	0x350c8aeb	5.2356216e-07
207	0x31e7adde	6.7427512e-09
208	0x34dedf53	4.1513212e-07
209	0x3527b32d	6.2473083e-07
210	0x36bce772	5.6297804e-06
211	0x356f1231	8.906091e-07
212	0x34baa2fc	3.4763787e-07
213	0x34d8830a	4.032848e-07
214	0x345a37cd	2.0323132e-07
215	0x3302a17b	3.041485e-08
216	0x363f5084	2.8508084e-06
217	0x306e42c7	8.667879e-10
218	0x337868b5	5.783723e-08
219	0x3578f9c2	9.2750645e-07
220	0x3995c3d1	0.0002856539
221	0x399875ef	0.00029079567
222	0x36c3306b	5.8170895e-06
223	0x355e88cb	8.2900505e-07
224	0x3b1e8bc7	0.00241922
225	0x3b1ebe71	0.0024222399
226	0x3345a72b	4.6019675e-08
227	0x363659fc	2.7172491e-06
228	0x326d2320	1.3803202e-08
229	0x3238f2fe	1.076546e-08
230	0x3331c60b	4.1391143e-08
231	0x342dcf4c	1.6187295e-07
232	0x3352b515	4.905913e-08
233	0x33f51d2f	1.141401e-07
234	0x32a3e860	1.908137e-08
235	0x3530d1a7	6.5870194e-07
236	0x3b23d4f6	0.002499876
237	0x3b259b32	0.0025269506

exp_avg f4 [119]
0	0xb79324ed	-1.754096e-05
1	0x37e001da	2.6703743e-05
2	0x390f6471	0.0001367496
3	0xb9210522	-0.00015356069
4	0xb3ed42c7	-1.1048319e-07
5	0xb71a02a5	-9.179731e-06
6	0xb81698e9	-3.5905196e-05
7	0xb6ec73a0	-7.0468086e-06
8	0xb803b839	-3.1404405e-05
9	0xb9400ab9	-0.00018314541
10	0x36e3cf86	6.789286e-06
11	0x388ced59	6.71993e-05
12	0x3735e2cf	1.0841249e-05
13	0x38f81fb6	0.00011831468
14	0xb79b2a03	-1.8497003e-05
15	0x37d1df16	2.5018624e-05
16	0x37c18892	2.3070988e-05
17	0x38128022	3.4928446e-05
18	0xb80cc1f6	-3.355924e-05
19	0x361fc8b9	2.3809682e-06
20	0x381160e9	3.466095e-05
21	0xb7525a1a	-1.2537954e-05
22	0x3883b7ca	6.2808e-05
23	0xb80a2253	-3.293373e-05
24	0x378ed17b	1.7025266e-05
25	0x3509f7dc	5.139716e-07
26	0x32b46dca	2.1004684e-08
27	0x39256d4c	0.00015776342
28	0xb6802d5e	-3.8199787e-06
29	0xb65829b8	-3.2210792e-06
30	0x36753c1c	3.6542833e-06
31	0xb79d4453	-1.8747674e-05
32	0xb7875db4	-1.6136888e-05
33	0x35a3247b	1.2155064e-06
34	0x3671f61d	3.6055055e-06
35	0x350a6ad0	5.156444e-07
36	0x383a6711	4.4441844e-05
37	0xb8e927ae	-0.00011117697
38	0x38663a86	5.4890777e-05
39	0x3720baac	9.580206e-06
40	0xb880b320	-6.13688e-05
41	0xb7ae5676	-2.0782678e-05
42	0x36bc57cd	5.613058e-06
43	0xb62eb496	-2.6033135e-06
44	0xb5da08bc	-1.6244808e-06
45	0xb815eed8	-3.574681e-05
46	0x37e288e0	2.7005037e-05
47	0xb5946ebf	-1.1059091e-06
48	0xb7f875d8	-2.9618779e-05
49	0x384dd855	4.9077284e-05
50	0xb8048ebe	-3.160419e-05
51	0x375b6212	1.3076251e-05
52	0xb751338f	-1.2469375e-05
53	0x3859f7c2	5.1967574e-05
54	0xb86a55ca	-5.5869845e-05
55	0x390e598f	0.00013575538
56	0x364b2ab9	3.0274225e-06
57	0x33da91a6	1.01779094e-07
58	0xb5e729f0	-1.7223047e-06
59	0x36c53bd5	5.878023e-06
60	0xb6327cf7	-2.6596806e-06
61	0xb764c0e8	-1.36347735e-05
62	0x35cd1138	1.5278702e-06
63	0x396ebb1f	0.00022767157
64	0x36e231b0	6.7411092e-06
65	0xb7775e8d	-1.4744362e-05
66	0xb6af344b	-5.221494e-06
67	0xb7eb8274	-2.807493e-05
68	0x39025988	0.00012431119
69	0x381fe059	3.8117494e-05
70	0x383a42e8	4.4408167e-05
71	0x37f36e61	2.9019257e-05
72	0x3722c907	9.702758e-06
73	0x376434e2	1.3602172e-05
74	0xb4d7ca69	-4.0194143e-07
75	0x383c650c	4.49168e-05
76	0xb887e134	-6.479249e-05
77	0x363621e9	2.7139852e-06
78	0x37dd05c3	2.6347936e-05
79	0xb4e9de03	-4.3561167e-07
80	0x37a6ac45	1.9868961e-05
81	0xb8187b29	-3.6354326e-05
82	0xb731583a	-1.0570564e-05
83	0xb5eccced	-1.7643011e-06
84	0x3500daf6	4.8002346e-07
85	0x3945e6ed	0.0001887341
86	0x355afe9a	8.158182e-07
87	0xb99c263f	-0.00029783134
88	0x3669840d	3.479657e-06
89	0x385b5473	5.229232e-05
90	0x37e165b0	2.6869442e-05
91	0x39359b9d	0.00017319476
92	0x395fac6f	0.00021331174
93	0xb7d8fef2	-2.5867925e-05
94	0xb6ef8441	-7.1381514e-06
95	0xb829b24e	-4.04588e-05
96	0x371bf24e	9.295136e-06
97	0xb621170d	-2.4004287e-06
98	0x36c57aa5	5.885335e-06
99	0x35601958	8.348338e-07
100	0x388179aa	6.173861e-05
101	0x359358a7	1.0978155e-06
102	0xb6968749	-4.4860976e-06
103	0xb84ffab4	-4.958613e-05
104	0x376b63f5	1.4030365e-05
105	0x388088ed	6.12902e-05
106	0x374b2f50	1.2110759e-05
107	0xb7ef23a8	-2.8507624e-05
108	0x37d141d0	2.4945388e-05
109	0x36fc374d	7.516623e-06
110	0x392e3ec3	0.00016617314
111	0xb8555140	-5.0858827e-05
112	0x38e0d568	0.00010720902
113	0x385175ce	4.9939197e-05
114	0x35067993	5.0095804e-07
115	0xb6675d60	-3.4476034e-06
116	0xb50d08c8	-5.253937e-07
117	0x37837f76	1.567577e-05
118	0xb95ea18e	-0.00021231754

exp_avg_sq f4 [119]
0	0x2f1650b4	1.3671092e-10
1	0x30dde2a2	1.6144279e-09
2	0x349ab705	2.88179e-07
3	0x3516c6ff	5.616893e-07
4	0x2e4c5027	4.645542e-11
5	0x2f89e956	2.508595e-10
6	0x2ffa334f	4.5511192e-10
7	0x2d89ea93	1.5679269e-11
8	0x2fd6b027	3.9051537e-10
9	0x3475c871	2.2890323e-07
10	0x2e976565	6.884696e-11
11	0x347902a3	2.3190891e-07
12	0x2e050545	3.024538e-11
13	0x344b08a9	1.8908999e-07
14	0x2f0d9ab2	1.2878834e-10
15	0x2fba3338	3.3869596e-10
16	0x2f0bfda6	1.273209e-10
17	0x30c2eed1	1.4183233e-09
18	0x2fd5c8f7	3.8887268e-10
19	0x2c92b813	4.170006e-12
20	0x2f8767df	2.4630162e-10
21	0x2eab0f56	7.778904e-11
22	0x30ad4bae	1.2608916e-09
23	0x305ca81c	8.027443e-10
24	0x310221a2	1.8936608e-09
25	0x32653234	1.3340969e-08
26	0x2e58cb43	4.9293247e-11
27	0x34074607	1.259833e-07
28	0x2dad95d7	1.9734365e-11
29	0x2f07ceae	1.2351606e-10
30	0x2ea50d0a	7.5056475e-11
31	0x2eb84a70	8.380574e-11
32	0x2fdb86a2	3.993153e-10
33	0x2c0179b0	1.8399553e-12
34	0x2eb61f99	8.282015e-11
35	0x2c406775	2.7342271e-12
36	0x3036f813	6.656375e-10
37	0x351a472d	5.7473045e-07
38	0x30753bab	8.9215274e-10
39	0x2e497b72	4.581175e-11
40	0x30d6f6b9	1.5640672e-09
41	0x2f64c400	2.0806112e-10
42	0x2f38ba4b	1.6800887e-10
43	0x2ddb3e8e	2.4925197e-11
44	0x2e50679b	4.7385745e-11
45	0x2ff6e567	4.491014e-10
46	0x2f87b60e	2.4685715e-10
47	0x2fac7a53	3.1373534e-10
48	0x31779bfe	3.6031902e-09
49	0x34c87e74	3.734491e-07
50	0x2f8e6f31	2.5908656e-10
51	0x2f52e3e2	1.9180349e-10
52	0x2ef786a0	1.1256174e-10
53	0x310bae39	2.0326196e-09
54	0x30a169c8	1.1744357e-09
55	0x34deb2a1	4.1480692e-07
56	0x2ea13d29	7.3322966e-11
57	0x2ff8cc41	4.5256068e-10
58	0x2c8cd8e6	4.00312e-12
59	0x2eb6f196	8.319316e-11
60	0x3058869e	7.8771645e-10
61	0x2f1708ea	1.3736537e-10
62	0x3066b183	8.392577e-10
63	0x34dfd167	4.1689347e-07
64	0x2db9031d	2.1033448e-11
65	0x2e82edd2	5.953961e-11
66	0x2d401839	1.0919315e-11
67	0x30173f20	5.5023186e-10
68	0x343ff4b5	1.7877285e-07
69	0x3014e2f2	5.4164595e-10
70	0x30c3e36f	1.4252758e-09
71	0x2fe02f25	4.077886e-10
72	0x2ee584c4	1.0437298e-10
73	0x2f4b69f4	1.8500385e-10
74	0x2dfdb4fe	2.8843147e-11
75	0x2fefe5f1	4.363723e-10
76	0x30f0cbf0	1.7520261e-09
77	0x2e931c1c	6.689779e-11
78	0x2fa9aa8f	3.086211e-10
79	0x2f1e4c31	1.4397085e-10
80	0x2ef6b6f7	1.1219286e-10
81	0x2f95bd3d	2.7237404e-10
82	0x2f371d39	1.6654135e-10
83	0x2ec874e4	9.115711e-11
84	0x2e6a2e61	5.3246633e-11
85	0x339af043	7.214887e-08
86	0x2e15f1f1	3.4093565e-11
87	0x34c4ccc0	3.665682e-07
88	0x2ec594b6	8.984939e-11
89	0x3082195b	9.465951e-10
90	0x3082a2cc	9.505015e-10
91	0x34d34a34	3.9355803e-07
92	0x34a8c9be	3.1439225e-07
93	0x30042e79	4.808736e-10
94	0x2e6fc57e	5.4517717e-11
95	0x31097f69	2.0008548e-09
96	0x2e137a16	3.3532364e-11
97	0x2bf06d74	1.7083405e-12
98	0x3032930f	6.4965006e-10
99	0x2e88665e	6.202748e-11
100	0x30bef1c0	1.3893029e-09
101	0x302e17d8	6.3334715e-10
102	0x2ecae10e	9.225874e-11
103	0x3039c79f	6.7586287e-10
104	0x2f21c9f7	1.4714617e-10
105	0x30c4edeb	1.4328497e-09
106	0x2ef4a376	1.1124872e-10
107	0x2f5b700d	1.9957742e-10
108	0x2f3aa1b6	1.6974053e-10
109	0x2f155e1b	1.3584904e-10
110	0x33c95700	9.375617e-08
111	0x3082b7bd	9.510966e-10
112	0x350287a1	4.862614e-07
113	0x30b8db09	1.3450016e-09
114	0x2bebf7ae	1.6766499e-12
115	0x2d8cf204	1.6023634e-11
116	0x2d696f54	1.3269236e-11
117	0x2f5852be	1.9674481e-10
118	0x35184db8	5.673751e-07
